…
/usr/local/lib/python3.10/dist-packages/apex/__init__.py:68: DeprecatedFeatureWarning: apex.parallel.DistributedDataParallel is deprecated and will be removed by the end of February 2023.
  warnings.warn(msg, DeprecatedFeatureWarning)
/usr/local/lib/python3.10/dist-packages/apex/parallel/distributed.py:253: UserWarning: The torch.cuda.*DtypeTensor constructors are no longer recommended. It's best to use methods such as torch.tensor(data, dtype=*, device='cuda') to create tensors. (Triggered internally at /opt/pytorch/pytorch/torch/csrc/tensor/python_tensor.cpp:79.)
  self._overflow_buf = torch.cuda.IntTensor([0])
DistributedDataParallel(
  (module): NeuMF(
    (mf_user_embed): Embedding(138493, 64)
    (mf_item_embed): Embedding(26744, 64)
    (mlp_user_embed): Embedding(138493, 128)
    (mlp_item_embed): Embedding(26744, 128)
    (mlp): ModuleList(
      (0): Linear(in_features=256, out_features=256, bias=True)
      (1): Linear(in_features=256, out_features=128, bias=True)
      (2): Linear(in_features=128, out_features=64, bias=True)
    )
    (final): Linear(in_features=128, out_features=1, bias=True)
  )
)
31832577 parameters
DistributedDataParallel(
  (module): NeuMF(
    (mf_user_embed): Embedding(138493, 64)
    (mf_item_embed): Embedding(26744, 64)
    (mlp_user_embed): Embedding(138493, 128)
    (mlp_item_embed): Embedding(26744, 128)
    (mlp): ModuleList(
      (0): Linear(in_features=256, out_features=256, bias=True)
      (1): Linear(in_features=256, out_features=128, bias=True)
      (2): Linear(in_features=128, out_features=64, bias=True)
    )
    (final): Linear(in_features=128, out_features=1, bias=True)
  )
)
31832577 parameters
DLL 2024-09-29 07:48:49.226935 - (0,) train_throughput : 1.537e+08 samples/s hr@10 : 0.83232 None train_epoch_time : 0.646 s validation_epoch_time : 0.562 s eval_throughput : 2.489e+07 samples/s validation_loss : 0.08829 None train_loss : 0.31234 None
New best hr!
DLL 2024-09-29 07:48:50.276616 - (1,) train_throughput : 1.972e+08 samples/s hr@10 : 0.83362 None train_epoch_time : 0.504 s validation_epoch_time : 0.546 s eval_throughput : 2.563e+07 samples/s validation_loss : 0.14798 None train_loss : 0.24895 None
…
