…
*****************************************
DLL 2022-11-19 09:18:07.528833 - PARAMETER data : /data/ncf/cache/ml-20m  feature_spec_file : feature_spec.yaml  epochs : 2  batch_size : 32000000  valid_batch_size : 1048576  factors : 64  layers : [256, 256, 128, 64]  negative_samples : 4  learning_rate : 0.0045  topk : 10  seed : None  threshold : 1.0  beta1 : 0.25  beta2 : 0.5  eps : 1e-08  dropout : 0.5  checkpoint_dir :   load_checkpoint_path : None  mode : train  grads_accumulated : 1  amp : False  log_path : log.json  world_size : 8  distributed : True  local_rank : 0 
DistributedDataParallel(
  (module): NeuMF(
    (mf_user_embed): Embedding(138493, 64)
    (mf_item_embed): Embedding(26744, 64)
    (mlp_user_embed): Embedding(138493, 128)
    (mlp_item_embed): Embedding(26744, 128)
    (mlp): ModuleList(
      (0): Linear(in_features=256, out_features=256, bias=True)
      (1): Linear(in_features=256, out_features=128, bias=True)
      (2): Linear(in_features=128, out_features=64, bias=True)
    )
    (final): Linear(in_features=128, out_features=1, bias=True)
  )
)
31832577 parameters
DistributedDataParallel(
  (module): NeuMF(
    (mf_user_embed): Embedding(138493, 64)
    (mf_item_embed): Embedding(26744, 64)
    (mlp_user_embed): Embedding(138493, 128)
    (mlp_item_embed): Embedding(26744, 128)
    (mlp): ModuleList(
      (0): Linear(in_features=256, out_features=256, bias=True)
      (1): Linear(in_features=256, out_features=128, bias=True)
      (2): Linear(in_features=128, out_features=64, bias=True)
    )
    (final): Linear(in_features=128, out_features=1, bias=True)
  )
)
31832577 parameters
DistributedDataParallel(
  (module): NeuMF(
    (mf_user_embed): Embedding(138493, 64)
    (mf_item_embed): Embedding(26744, 64)
    (mlp_user_embed): Embedding(138493, 128)
    (mlp_item_embed): Embedding(26744, 128)
    (mlp): ModuleList(
      (0): Linear(in_features=256, out_features=256, bias=True)
      (1): Linear(in_features=256, out_features=128, bias=True)
      (2): Linear(in_features=128, out_features=64, bias=True)
    )
    (final): Linear(in_features=128, out_features=1, bias=True)
  )
)
31832577 parameters
DistributedDataParallel(
  (module): NeuMF(
    (mf_user_embed): Embedding(138493, 64)
    (mf_item_embed): Embedding(26744, 64)
    (mlp_user_embed): Embedding(138493, 128)
    (mlp_item_embed): Embedding(26744, 128)
    (mlp): ModuleList(
      (0): Linear(in_features=256, out_features=256, bias=True)
      (1): Linear(in_features=256, out_features=128, bias=True)
      (2): Linear(in_features=128, out_features=64, bias=True)
    )
    (final): Linear(in_features=128, out_features=1, bias=True)
  )
)
31832577 parameters
DistributedDataParallel(
  (module): NeuMF(
    (mf_user_embed): Embedding(138493, 64)
    (mf_item_embed): Embedding(26744, 64)
    (mlp_user_embed): Embedding(138493, 128)
    (mlp_item_embed): Embedding(26744, 128)
    (mlp): ModuleList(
      (0): Linear(in_features=256, out_features=256, bias=True)
      (1): Linear(in_features=256, out_features=128, bias=True)
      (2): Linear(in_features=128, out_features=64, bias=True)
    )
    (final): Linear(in_features=128, out_features=1, bias=True)
  )
)
31832577 parameters
DistributedDataParallel(
  (module): NeuMF(
    (mf_user_embed): Embedding(138493, 64)
    (mf_item_embed): Embedding(26744, 64)
    (mlp_user_embed): Embedding(138493, 128)
    (mlp_item_embed): Embedding(26744, 128)
    (mlp): ModuleList(
      (0): Linear(in_features=256, out_features=256, bias=True)
      (1): Linear(in_features=256, out_features=128, bias=True)
      (2): Linear(in_features=128, out_features=64, bias=True)
    )
    (final): Linear(in_features=128, out_features=1, bias=True)
  )
)
31832577 parameters
DistributedDataParallel(
  (module): NeuMF(
    (mf_user_embed): Embedding(138493, 64)
    (mf_item_embed): Embedding(26744, 64)
    (mlp_user_embed): Embedding(138493, 128)
    (mlp_item_embed): Embedding(26744, 128)
    (mlp): ModuleList(
      (0): Linear(in_features=256, out_features=256, bias=True)
      (1): Linear(in_features=256, out_features=128, bias=True)
      (2): Linear(in_features=128, out_features=64, bias=True)
    )
    (final): Linear(in_features=128, out_features=1, bias=True)
  )
)
31832577 parameters
DistributedDataParallel(
  (module): NeuMF(
    (mf_user_embed): Embedding(138493, 64)
    (mf_item_embed): Embedding(26744, 64)
    (mlp_user_embed): Embedding(138493, 128)
    (mlp_item_embed): Embedding(26744, 128)
    (mlp): ModuleList(
      (0): Linear(in_features=256, out_features=256, bias=True)
      (1): Linear(in_features=256, out_features=128, bias=True)
      (2): Linear(in_features=128, out_features=64, bias=True)
    )
    (final): Linear(in_features=128, out_features=1, bias=True)
  )
)
31832577 parameters
DLL 2022-11-19 09:18:14.977348 - (0,) train_throughput : 5.970e+07 samples/s hr@10 : 0.80576 None train_epoch_time : 1.663 s validation_epoch_time : 0.266 s eval_throughput : 5.263e+07 samples/s validation_loss : 0.33241 None train_loss : 0.57395 None
New best hr!
DLL 2022-11-19 09:18:16.220057 - (1,) train_throughput : 1.012e+08 samples/s hr@10 : 0.83199 None train_epoch_time : 0.981 s validation_epoch_time : 0.261 s eval_throughput : 5.366e+07 samples/s validation_loss : 0.08746 None train_loss : 0.31578 None
…
