…
0: Processing data from /data/gnmt/wmt16_de_en/newstest2014.tok.bpe.32000.en
1: Filtering data, min len: 0, max len: 150
1: Pairs before: 3003, after: 3003
3: Filtering data, min len: 0, max len: 150
0: Filtering data, min len: 0, max len: 150
3: Pairs before: 3003, after: 3003
2: Filtering data, min len: 0, max len: 150
0: Pairs before: 3003, after: 3003
2: Pairs before: 3003, after: 3003
1: GNMT(
  (encoder): ResidualRecurrentEncoder(
    (rnn_layers): ModuleList(
      (0): LSTM(1024, 1024, bidirectional=True)
      (1): LSTM(2048, 1024)
      (2-3): 2 x LSTM(1024, 1024)
    )
    (dropout): Dropout(p=0.2, inplace=False)
    (embedder): Embedding(31800, 1024, padding_idx=0)
  )
  (decoder): ResidualRecurrentDecoder(
    (att_rnn): RecurrentAttention(
      (rnn): LSTM(1024, 1024)
      (attn): BahdanauAttention(
        (linear_q): Linear(in_features=1024, out_features=1024, bias=False)
        (linear_k): Linear(in_features=1024, out_features=1024, bias=False)
      )
      (dropout): Dropout(p=0.2, inplace=False)
    )
    (rnn_layers): ModuleList(
      (0-2): 3 x LSTM(2048, 1024)
    )
    (embedder): Embedding(31800, 1024, padding_idx=0)
    (classifier): Classifier(
      (classifier): Linear(in_features=1024, out_features=31800, bias=True)
    )
    (dropout): Dropout(p=0.2, inplace=False)
  )
)
1: Building LabelSmoothingLoss (smoothing: 0.1)
1: Training optimizer config: {'optimizer': 'Adam', 'lr': 0.002}
1: Training LR schedule config: {'warmup_steps': 200, 'remain_steps': 0.666, 'decay_interval': None, 'decay_steps': 4, 'decay_factor': 0.5}
1: Number of parameters: 159605817
/usr/local/lib/python3.12/dist-packages/torch/utils/data/dataloader.py:626: UserWarning: This DataLoader will create 64 worker processes in total. Our suggested max number of worker in current system is 26, which is smaller than what this DataLoader is going to create. Please be aware that excessive worker creation might get DataLoader running slow or even freeze, lower the worker number to avoid potential slowness/freeze if necessary.
  warnings.warn(
1: Saving state of the tokenizer
0: GNMT(
  (encoder): ResidualRecurrentEncoder(
    (rnn_layers): ModuleList(
      (0): LSTM(1024, 1024, bidirectional=True)
      (1): LSTM(2048, 1024)
      (2-3): 2 x LSTM(1024, 1024)
    )
    (dropout): Dropout(p=0.2, inplace=False)
    (embedder): Embedding(31800, 1024, padding_idx=0)
  )
  (decoder): ResidualRecurrentDecoder(
    (att_rnn): RecurrentAttention(
      (rnn): LSTM(1024, 1024)
      (attn): BahdanauAttention(
        (linear_q): Linear(in_features=1024, out_features=1024, bias=False)
        (linear_k): Linear(in_features=1024, out_features=1024, bias=False)
      )
      (dropout): Dropout(p=0.2, inplace=False)
    )
    (rnn_layers): ModuleList(
      (0-2): 3 x LSTM(2048, 1024)
    )
    (embedder): Embedding(31800, 1024, padding_idx=0)
    (classifier): Classifier(
      (classifier): Linear(in_features=1024, out_features=31800, bias=True)
    )
    (dropout): Dropout(p=0.2, inplace=False)
  )
)
0: Building LabelSmoothingLoss (smoothing: 0.1)
0: Training optimizer config: {'optimizer': 'Adam', 'lr': 0.002}
0: Training LR schedule config: {'warmup_steps': 200, 'remain_steps': 0.666, 'decay_interval': None, 'decay_steps': 4, 'decay_factor': 0.5}
0: Number of parameters: 159605817
2: GNMT(
  (encoder): ResidualRecurrentEncoder(
    (rnn_layers): ModuleList(
      (0): LSTM(1024, 1024, bidirectional=True)
      (1): LSTM(2048, 1024)
      (2-3): 2 x LSTM(1024, 1024)
    )
    (dropout): Dropout(p=0.2, inplace=False)
    (embedder): Embedding(31800, 1024, padding_idx=0)
  )
  (decoder): ResidualRecurrentDecoder(
    (att_rnn): RecurrentAttention(
      (rnn): LSTM(1024, 1024)
      (attn): BahdanauAttention(
        (linear_q): Linear(in_features=1024, out_features=1024, bias=False)
        (linear_k): Linear(in_features=1024, out_features=1024, bias=False)
      )
      (dropout): Dropout(p=0.2, inplace=False)
    )
    (rnn_layers): ModuleList(
      (0-2): 3 x LSTM(2048, 1024)
    )
    (embedder): Embedding(31800, 1024, padding_idx=0)
    (classifier): Classifier(
      (classifier): Linear(in_features=1024, out_features=31800, bias=True)
    )
    (dropout): Dropout(p=0.2, inplace=False)
  )
)
2: Building LabelSmoothingLoss (smoothing: 0.1)
3: GNMT(
  (encoder): ResidualRecurrentEncoder(
    (rnn_layers): ModuleList(
      (0): LSTM(1024, 1024, bidirectional=True)
      (1): LSTM(2048, 1024)
      (2-3): 2 x LSTM(1024, 1024)
    )
    (dropout): Dropout(p=0.2, inplace=False)
    (embedder): Embedding(31800, 1024, padding_idx=0)
  )
  (decoder): ResidualRecurrentDecoder(
    (att_rnn): RecurrentAttention(
      (rnn): LSTM(1024, 1024)
      (attn): BahdanauAttention(
        (linear_q): Linear(in_features=1024, out_features=1024, bias=False)
        (linear_k): Linear(in_features=1024, out_features=1024, bias=False)
      )
      (dropout): Dropout(p=0.2, inplace=False)
    )
    (rnn_layers): ModuleList(
      (0-2): 3 x LSTM(2048, 1024)
    )
    (embedder): Embedding(31800, 1024, padding_idx=0)
    (classifier): Classifier(
      (classifier): Linear(in_features=1024, out_features=31800, bias=True)
    )
    (dropout): Dropout(p=0.2, inplace=False)
  )
)
3: Building LabelSmoothingLoss (smoothing: 0.1)
2: Training optimizer config: {'optimizer': 'Adam', 'lr': 0.002}
2: Training LR schedule config: {'warmup_steps': 200, 'remain_steps': 0.666, 'decay_interval': None, 'decay_steps': 4, 'decay_factor': 0.5}
2: Number of parameters: 159605817
3: Training optimizer config: {'optimizer': 'Adam', 'lr': 0.002}
…
