…
/usr/local/lib/python3.10/dist-packages/apex/__init__.py:68: DeprecatedFeatureWarning: apex.parallel.DistributedDataParallel is deprecated and will be removed by the end of February 2023.
  warnings.warn(msg, DeprecatedFeatureWarning)
/usr/local/lib/python3.10/dist-packages/apex/parallel/distributed.py:253: UserWarning: The torch.cuda.*DtypeTensor constructors are no longer recommended. It's best to use methods such as torch.tensor(data, dtype=*, device='cuda') to create tensors. (Triggered internally at /opt/pytorch/pytorch/torch/csrc/tensor/python_tensor.cpp:79.)
  self._overflow_buf = torch.cuda.IntTensor([0])
DistributedDataParallel(
  (module): NeuMF(
    (mf_user_embed): Embedding(138493, 64)
    (mf_item_embed): Embedding(26744, 64)
    (mlp_user_embed): Embedding(138493, 128)
    (mlp_item_embed): Embedding(26744, 128)
    (mlp): ModuleList(
      (0): Linear(in_features=256, out_features=256, bias=True)
      (1): Linear(in_features=256, out_features=128, bias=True)
      (2): Linear(in_features=128, out_features=64, bias=True)
    )
    (final): Linear(in_features=128, out_features=1, bias=True)
  )
)
31832577 parameters
DistributedDataParallel(
  (module): NeuMF(
    (mf_user_embed): Embedding(138493, 64)
    (mf_item_embed): Embedding(26744, 64)
    (mlp_user_embed): Embedding(138493, 128)
    (mlp_item_embed): Embedding(26744, 128)
    (mlp): ModuleList(
      (0): Linear(in_features=256, out_features=256, bias=True)
      (1): Linear(in_features=256, out_features=128, bias=True)
      (2): Linear(in_features=128, out_features=64, bias=True)
    )
    (final): Linear(in_features=128, out_features=1, bias=True)
  )
)
31832577 parameters
DLL 2024-04-30 22:36:47.862924 - (0,) train_throughput : 6.516e+07 samples/s hr@10 : 0.81812 None train_epoch_time : 1.524 s validation_epoch_time : 0.549 s eval_throughput : 2.550e+07 samples/s validation_loss : 0.23124 None train_loss : 0.53195 None
New best hr!
DLL 2024-04-30 22:36:48.755869 - (1,) train_throughput : 2.597e+08 samples/s hr@10 : 0.83289 None train_epoch_time : 0.382 s validation_epoch_time : 0.510 s eval_throughput : 2.743e+07 samples/s validation_loss : 0.10221 None train_loss : 0.27033 None
…
