…
0: Processing data from /data/gnmt/wmt16_de_en/newstest2014.tok.bpe.32000.en
1: Filtering data, min len: 0, max len: 150
1: Pairs before: 3003, after: 3003
3: Filtering data, min len: 0, max len: 150
3: Pairs before: 3003, after: 3003
2: Filtering data, min len: 0, max len: 150
2: Pairs before: 3003, after: 3003
0: Filtering data, min len: 0, max len: 150
0: Pairs before: 3003, after: 3003
5: GNMT(
  (encoder): ResidualRecurrentEncoder(
    (rnn_layers): ModuleList(
      (0): LSTM(1024, 1024, bidirectional=True)
      (1): LSTM(2048, 1024)
      (2): LSTM(1024, 1024)
      (3): LSTM(1024, 1024)
    )
    (dropout): Dropout(p=0.2, inplace=False)
    (embedder): Embedding(31800, 1024, padding_idx=0)
  )
  (decoder): ResidualRecurrentDecoder(
    (att_rnn): RecurrentAttention(
      (rnn): LSTM(1024, 1024)
      (attn): BahdanauAttention(
        (linear_q): Linear(in_features=1024, out_features=1024, bias=False)
        (linear_k): Linear(in_features=1024, out_features=1024, bias=False)
      )
      (dropout): Dropout(p=0.2, inplace=False)
    )
    (rnn_layers): ModuleList(
      (0): LSTM(2048, 1024)
      (1): LSTM(2048, 1024)
      (2): LSTM(2048, 1024)
    )
    (embedder): Embedding(31800, 1024, padding_idx=0)
    (classifier): Classifier(
      (classifier): Linear(in_features=1024, out_features=31800, bias=True)
    )
    (dropout): Dropout(p=0.2, inplace=False)
  )
)
5: Building LabelSmoothingLoss (smoothing: 0.1)
5: Training optimizer config: {'optimizer': 'Adam', 'lr': 0.002}
5: Training LR schedule config: {'warmup_steps': 200, 'remain_steps': 0.666, 'decay_interval': None, 'decay_steps': 4, 'decay_factor': 0.5}
5: Number of parameters: 159605817
4: GNMT(
  (encoder): ResidualRecurrentEncoder(
    (rnn_layers): ModuleList(
      (0): LSTM(1024, 1024, bidirectional=True)
      (1): LSTM(2048, 1024)
      (2): LSTM(1024, 1024)
      (3): LSTM(1024, 1024)
    )
    (dropout): Dropout(p=0.2, inplace=False)
    (embedder): Embedding(31800, 1024, padding_idx=0)
  )
  (decoder): ResidualRecurrentDecoder(
    (att_rnn): RecurrentAttention(
      (rnn): LSTM(1024, 1024)
      (attn): BahdanauAttention(
        (linear_q): Linear(in_features=1024, out_features=1024, bias=False)
        (linear_k): Linear(in_features=1024, out_features=1024, bias=False)
      )
      (dropout): Dropout(p=0.2, inplace=False)
    )
    (rnn_layers): ModuleList(
      (0): LSTM(2048, 1024)
      (1): LSTM(2048, 1024)
      (2): LSTM(2048, 1024)
    )
    (embedder): Embedding(31800, 1024, padding_idx=0)
    (classifier): Classifier(
      (classifier): Linear(in_features=1024, out_features=31800, bias=True)
    )
    (dropout): Dropout(p=0.2, inplace=False)
  )
)
4: Building LabelSmoothingLoss (smoothing: 0.1)
4: Training optimizer config: {'optimizer': 'Adam', 'lr': 0.002}
4: Training LR schedule config: {'warmup_steps': 200, 'remain_steps': 0.666, 'decay_interval': None, 'decay_steps': 4, 'decay_factor': 0.5}
4: Number of parameters: 159605817
6: GNMT(
  (encoder): ResidualRecurrentEncoder(
    (rnn_layers): ModuleList(
      (0): LSTM(1024, 1024, bidirectional=True)
      (1): LSTM(2048, 1024)
      (2): LSTM(1024, 1024)
      (3): LSTM(1024, 1024)
    )
    (dropout): Dropout(p=0.2, inplace=False)
    (embedder): Embedding(31800, 1024, padding_idx=0)
  )
  (decoder): ResidualRecurrentDecoder(
    (att_rnn): RecurrentAttention(
      (rnn): LSTM(1024, 1024)
      (attn): BahdanauAttention(
        (linear_q): Linear(in_features=1024, out_features=1024, bias=False)
        (linear_k): Linear(in_features=1024, out_features=1024, bias=False)
      )
      (dropout): Dropout(p=0.2, inplace=False)
    )
    (rnn_layers): ModuleList(
      (0): LSTM(2048, 1024)
      (1): LSTM(2048, 1024)
      (2): LSTM(2048, 1024)
    )
    (embedder): Embedding(31800, 1024, padding_idx=0)
    (classifier): Classifier(
      (classifier): Linear(in_features=1024, out_features=31800, bias=True)
    )
    (dropout): Dropout(p=0.2, inplace=False)
  )
)
6: Building LabelSmoothingLoss (smoothing: 0.1)
6: Training optimizer config: {'optimizer': 'Adam', 'lr': 0.002}
6: Training LR schedule config: {'warmup_steps': 200, 'remain_steps': 0.666, 'decay_interval': None, 'decay_steps': 4, 'decay_factor': 0.5}
6: Number of parameters: 159605817
2: GNMT(
  (encoder): ResidualRecurrentEncoder(
    (rnn_layers): ModuleList(
      (0): LSTM(1024, 1024, bidirectional=True)
      (1): LSTM(2048, 1024)
      (2): LSTM(1024, 1024)
      (3): LSTM(1024, 1024)
    )
    (dropout): Dropout(p=0.2, inplace=False)
    (embedder): Embedding(31800, 1024, padding_idx=0)
  )
  (decoder): ResidualRecurrentDecoder(
    (att_rnn): RecurrentAttention(
      (rnn): LSTM(1024, 1024)
      (attn): BahdanauAttention(
        (linear_q): Linear(in_features=1024, out_features=1024, bias=False)
        (linear_k): Linear(in_features=1024, out_features=1024, bias=False)
      )
      (dropout): Dropout(p=0.2, inplace=False)
    )
    (rnn_layers): ModuleList(
      (0): LSTM(2048, 1024)
      (1): LSTM(2048, 1024)
      (2): LSTM(2048, 1024)
    )
    (embedder): Embedding(31800, 1024, padding_idx=0)
    (classifier): Classifier(
      (classifier): Linear(in_features=1024, out_features=31800, bias=True)
    )
    (dropout): Dropout(p=0.2, inplace=False)
  )
)
2: Building LabelSmoothingLoss (smoothing: 0.1)
2: Training optimizer config: {'optimizer': 'Adam', 'lr': 0.002}
2: Training LR schedule config: {'warmup_steps': 200, 'remain_steps': 0.666, 'decay_interval': None, 'decay_steps': 4, 'decay_factor': 0.5}
2: Number of parameters: 159605817
1: GNMT(
  (encoder): ResidualRecurrentEncoder(
    (rnn_layers): ModuleList(
      (0): LSTM(1024, 1024, bidirectional=True)
      (1): LSTM(2048, 1024)
      (2): LSTM(1024, 1024)
      (3): LSTM(1024, 1024)
    )
    (dropout): Dropout(p=0.2, inplace=False)
    (embedder): Embedding(31800, 1024, padding_idx=0)
  )
  (decoder): ResidualRecurrentDecoder(
    (att_rnn): RecurrentAttention(
      (rnn): LSTM(1024, 1024)
      (attn): BahdanauAttention(
        (linear_q): Linear(in_features=1024, out_features=1024, bias=False)
        (linear_k): Linear(in_features=1024, out_features=1024, bias=False)
      )
      (dropout): Dropout(p=0.2, inplace=False)
    )
    (rnn_layers): ModuleList(
      (0): LSTM(2048, 1024)
      (1): LSTM(2048, 1024)
      (2): LSTM(2048, 1024)
    )
    (embedder): Embedding(31800, 1024, padding_idx=0)
    (classifier): Classifier(
      (classifier): Linear(in_features=1024, out_features=31800, bias=True)
    )
    (dropout): Dropout(p=0.2, inplace=False)
  )
)
1: Building LabelSmoothingLoss (smoothing: 0.1)
1: Training optimizer config: {'optimizer': 'Adam', 'lr': 0.002}
1: Training LR schedule config: {'warmup_steps': 200, 'remain_steps': 0.666, 'decay_interval': None, 'decay_steps': 4, 'decay_factor': 0.5}
1: Number of parameters: 159605817
4: Saving state of the tokenizer
…
    eps: 1e-08
    foreach: None
    lr: 0.002
    maximize: False
    weight_decay: 0
)
1: Scheduler warmup steps: 200
1: Scheduler remain steps: 10
1: Scheduler decay interval: 1
1: Scheduler decay factor: 0.5
1: Scheduler max decay steps: 4
1: warmup_steps should not be larger than remain_steps, setting warmup_steps=remain_steps
3: GNMT(
  (encoder): ResidualRecurrentEncoder(
    (rnn_layers): ModuleList(
      (0): LSTM(1024, 1024, bidirectional=True)
      (1): LSTM(2048, 1024)
      (2): LSTM(1024, 1024)
      (3): LSTM(1024, 1024)
    )
    (dropout): Dropout(p=0.2, inplace=False)
    (embedder): Embedding(31800, 1024, padding_idx=0)
  )
  (decoder): ResidualRecurrentDecoder(
    (att_rnn): RecurrentAttention(
      (rnn): LSTM(1024, 1024)
      (attn): BahdanauAttention(
        (linear_q): Linear(in_features=1024, out_features=1024, bias=False)
        (linear_k): Linear(in_features=1024, out_features=1024, bias=False)
      )
      (dropout): Dropout(p=0.2, inplace=False)
    )
    (rnn_layers): ModuleList(
      (0): LSTM(2048, 1024)
      (1): LSTM(2048, 1024)
      (2): LSTM(2048, 1024)
    )
    (embedder): Embedding(31800, 1024, padding_idx=0)
    (classifier): Classifier(
      (classifier): Linear(in_features=1024, out_features=31800, bias=True)
    )
    (dropout): Dropout(p=0.2, inplace=False)
  )
)
3: Building LabelSmoothingLoss (smoothing: 0.1)
3: Training optimizer config: {'optimizer': 'Adam', 'lr': 0.002}
3: Training LR schedule config: {'warmup_steps': 200, 'remain_steps': 0.666, 'decay_interval': None, 'decay_steps': 4, 'decay_factor': 0.5}
3: Number of parameters: 159605817
3: Saving state of the tokenizer
…
