…
/usr/local/lib/python3.10/dist-packages/apex/parallel/distributed.py:253: UserWarning: The torch.cuda.*DtypeTensor constructors are no longer recommended. It's best to use methods such as torch.tensor(data, dtype=*, device='cuda') to create tensors. (Triggered internally at /opt/pytorch/pytorch/torch/csrc/tensor/python_tensor.cpp:79.)
  self._overflow_buf = torch.cuda.IntTensor([0])
/usr/local/lib/python3.10/dist-packages/apex/parallel/distributed.py:253: UserWarning: The torch.cuda.*DtypeTensor constructors are no longer recommended. It's best to use methods such as torch.tensor(data, dtype=*, device='cuda') to create tensors. (Triggered internally at /opt/pytorch/pytorch/torch/csrc/tensor/python_tensor.cpp:79.)
  self._overflow_buf = torch.cuda.IntTensor([0])
DistributedDataParallel(
  (module): NeuMF(
    (mf_user_embed): Embedding(138493, 64)
    (mf_item_embed): Embedding(26744, 64)
    (mlp_user_embed): Embedding(138493, 128)
    (mlp_item_embed): Embedding(26744, 128)
    (mlp): ModuleList(
      (0): Linear(in_features=256, out_features=256, bias=True)
      (1): Linear(in_features=256, out_features=128, bias=True)
      (2): Linear(in_features=128, out_features=64, bias=True)
    )
    (final): Linear(in_features=128, out_features=1, bias=True)
  )
)
31832577 parameters
DistributedDataParallel(
  (module): NeuMF(
    (mf_user_embed): Embedding(138493, 64)
    (mf_item_embed): Embedding(26744, 64)
    (mlp_user_embed): Embedding(138493, 128)
    (mlp_item_embed): Embedding(26744, 128)
    (mlp): ModuleList(
      (0): Linear(in_features=256, out_features=256, bias=True)
      (1): Linear(in_features=256, out_features=128, bias=True)
      (2): Linear(in_features=128, out_features=64, bias=True)
    )
    (final): Linear(in_features=128, out_features=1, bias=True)
  )
)
31832577 parameters
DLL 2024-09-29 06:56:54.382281 - (0,) train_throughput : 1.573e+08 samples/s hr@10 : 0.83242 None train_epoch_time : 0.631 s validation_epoch_time : 0.565 s eval_throughput : 2.475e+07 samples/s validation_loss : 0.09483 None train_loss : 0.33410 None
New best hr!
DLL 2024-09-29 06:56:55.431723 - (1,) train_throughput : 1.972e+08 samples/s hr@10 : 0.83395 None train_epoch_time : 0.504 s validation_epoch_time : 0.545 s eval_throughput : 2.564e+07 samples/s validation_loss : 0.13143 None train_loss : 0.24844 None
…
